src/signlanguage.onnx (onnx, 226863 bytes, 12 tensors)

conv1.bias f4 [6]
0.2557286 0.3298295 0.43789542 -0.11186742 -0.17055817 0.76482
00000000: dcee 823e 6adf a83e d433 e03e bf1a e5bd
00000010: cda6 2ebe 3ecb 433f

conv1.weight f4 [6, 1, 3, 3]
0.14900862 -0.5907117 -0.22198184 0.12526721 -0.4736719 -0.27185243 0.45033205 -0.39617905
0.06336997 -0.16667219 -0.73967206 -0.3570072 0.12993765 -0.3784469 0.3470985 0.27759555
-0.15120582 0.58512527 1.2596763 -0.10138919 -0.41069153 0.5711223 -0.36226627 -0.9964944
0.7245379 -0.41497993 -0.46744543 0.16135328 -0.045636475 -0.10696958 0.06901024 -0.47941256
-0.124894895 0.041676052 0.16615383 0.3323111 -0.65223485 0.23239158 0.659684 -0.50606793
0.29328698 0.7800784 -0.11224809 0.013366098 -0.15700752 0.19748989 -0.48392048 -0.8417171
0.08821252 -0.050769377 -0.15242049 0.82648474 -0.06806145 0.1424479
00000000: b795 183e e238 17bf 354f 63be 0c46 003e
00000010: 2085 f2be 3e30 8bbe ec91 e63e fbd7 cabe
00000020: 1dc8 813d 1dac 2abe 265b 3dbf a6c9 b6be
00000030: 600e 053e cbc3 c1be e5b6 b13e 0121 8e3e
00000040: b3d5 1abe c5ca 153f 133d a13f 23a5 cfbd
00000050: 2946 d2be 1235 123f f77a b9be 421a 7fbf
00000060: 517b 393f 4078 d4be 0255 efbe cb39 253e
00000070: 50ed 3abd de12 dbbd 3e55 8d3d 9075 f5be
00000080: e5c8 ffbd 82b4 2a3d 3b24 2a3e ae24 aa3e
00000090: ddf8 26bf 0ff8 6d3e 0de1 283f ab8d 01bf
000000a0: b629 963e 38b3 473f 54e2 e5bd 7afd 5a3c
000000b0: 94c6 20be ca3a 4a3e 6dc4 f7be c67a 57bf
000000c0: c4a8 b43d 8df3 4fbd 1e14 1cbe 8194 533f
000000d0: cd63 8bbd dddd 113e

conv2.bias f4 [6]
-0.10099198 -0.12127575 0.07263171 -0.2234532 0.33785346 0.1487055
00000000: e2d4 cebd 6c5f f8bd efbf 943d ead0 64be
00000010: 21fb ac3e 4146 183e

conv2.weight f4 [6, 6, 3, 3]
-0.08945745 -0.093852066 -0.12968878 0.09267789 -0.037276965 0.0873593 -0.029500341 -0.100842655
-0.07894531 0.12331482 0.021235887 0.1314719 0.13455231 0.076780066 -0.022291766 -0.069688916
0.097892046 -0.05202562 -0.013651131 0.060694054 0.035227176 -0.11047647 0.030424753 -0.15740052
-0.013240745 -0.051201902 -0.06983987 0.039110895 -0.0016054054 0.0684603 0.05458432 0.1314315
-0.07775769 -0.080843605 0.07827543 -0.12191891 -0.15867966 0.14302802 0.14636207 -0.061911818
0.12122744 0.17394593 0.08516979 -0.059056994 0.020056285 0.018773498 -0.041838422 0.09311697
-0.036603995 -0.031332202 -0.11615264 0.06026206 0.034977034 -0.1141906 0.15755974 0.3081277
0.2266498 -0.105253175 0.026061868 0.430153 -0.19522199 0.186883 0.3107251 -0.17753308
-0.1802854 0.05871383 -0.21043289 -0.22179252 0.13062829 -0.08353296 3.879172e-05 0.29917634
0.31916353 0.21141958 0.2815244 0.13340066 0.14228243 0.041802015 -0.018285193 0.035259683
0.07251495 0.0009955328 -0.078079954 -0.11154439 -0.0100183105 -0.04580716 -0.060160175 0.06730646
0.09564654 -0.015282998 -0.14313674 -0.014664011 0.076101825 -0.2343126 -0.30947793 -0.22106978
-0.17532276 0.04234364 0.17724712 0.17972335 0.1923031 -0.03096549 -0.033739746 0.22975275
0.026837418 -0.053797495 0.23303473 0.23366459 0.029454319 -0.061155327 0.21518354 0.24212779
0.04514737 0.2889276 0.17106263 0.21893167 0.16660644 -0.16799887 -0.29994363 -0.12353035
0.06024409 -0.17353286 0.023361957 0.12430694 0.06812985 0.19892254 -0.089271694 -0.091100395
-0.066578366 -0.028431045 -0.14477861 -0.066126116 0.236607 -0.24154676 -0.12888461 -0.0773404
0.052867018 -0.015413834 -0.16507211 0.05794861 0.06439378 0.089978345 -0.09036712 -0.055478327
0.11232742 0.13172916 -0.021310499 -0.012433706 0.10746838 -0.28127143 -0.19872186 -0.17926107
-0.17822142 -0.23845588 -0.03409215 -0.08352753 0.15306208 0.00064433523 0.08029398 0.4289517
0.17880553 0.055125333 -0.08127622 -0.017232053 -0.0117998 -0.002200883 -0.040941816 0.02111052
0.05110292 -0.064968936 -0.024253735 0.11865223 -0.19452111 -0.07344919 -0.1375268 -0.17532545
-0.007870012 -0.17642985 -0.059443504 -0.03627389 0.018354781 -0.22631218 0.18332967 -0.04939315
0.15742178 0.34667802 -0.025508918 0.39484227 0.3328195 -0.0033568146 0.108721845 0.031885
-0.060366813 -0.11125123 0.056260787 0.1137705 0.056039896 -0.049081225 0.41507435 0.14744295
-0.15025456 0.14959465 -0.08602748 -0.15478548 -0.057701174 -0.277098 -0.30895892 -0.26644656
-0.27803782 -0.04638833 -0.1881724 -0.1550295 -0.087996505 -0.25063753 0.11443899 0.06893161
0.114158124 0.07499452 -0.04171653 -0.050508786 0.20653407 0.014064656 0.017381154 0.093490705
-0.18019325 -0.044861365 -0.03986629 -0.043979153 -0.0565878 0.17099257 -0.13442159 0.12704916
0.10516107 0.086906254 0.49527344 0.1646197 -0.11047088 0.29638755 -0.109800614 -0.20336607
-0.009418677 0.08202373 -0.5433075 -0.024952414 0.069921054 0.012824714 0.04358657 0.05888699
0.094354406 0.011351688 0.03297877 -0.0001258775 -0.29297295 0.261314 0.13023913 -0.58981144
00000000: 7835 b7bd 8335 c0bd 23cd 04be e8cd bd3d
00000010: bbaf 18bd 6fe9 b23d b3aa f1bc 9886 cebd
00000020: 14ae a1bd 7b8c fc3d e2f6 ad3c 92a0 063e
00000030: 15c8 093e de3e 9d3d 399d b6bc 10b9 8ebd
00000040: a07b c83d d118 55bd fea8 5fbc 549a 783d
00000050: 5f4a 103d 7d41 e2bd 553d f93c 9a2d 21be
00000060: b6ef 58bc 16b9 51bd 3508 8fbd bf32 203d
00000070: 776c d2ba ea34 8c3d cf93 5f3d fb95 063e
00000080: 6c3f 9fbd 5591 a5bd de4e a03d 9fb0 f9bd
00000090: ec7c 22be f075 123e f0df 153e 3f97 7dbd
000000a0: 1846 f83d e21e 323e 806d ae3d bfe5 71bd
000000b0: 144d a43c e1ca 993c c45e 2bbd 1cb4 be3d
000000c0: 12ee 15bd 3256 00bd 6fe1 edbd 5ad5 763d
000000d0: 1444 0f3d c3dc e9bd 5757 213e eac2 9d3e
000000e0: e316 683e fa8e d7bd b37f d53c 043d dc3e
000000f0: 46e8 47be 425e 3f3e 5c17 9f3e 3bcb 35be
00000100: bc9c 38be ea7d 703d b87b 57be 941d 63be
00000110: 6cc3 053e 5413 abbd 4bb4 2238 a42d 993e
00000120: 6769 a33e 607e 583e f723 903e 2f9a 083e
00000130: 7cb2 113e 9738 2b3d d4ca 95bc 756c 103d
00000140: b882 943d 8a7c 823a 62e8 9fbd 6371 e4bd
00000150: d723 24bc 4aa0 3bbd 846a 76bd f8d7 893d
00000160: 55e2 c33d 8a65 7abc 7092 12be 5241 70bc
00000170: 46db 9b3d a4ef 6fbe e473 9ebe 1e60 62be
00000180: cf87 33be 8670 2d3d 4580 353e 6609 383e
00000190: 1beb 443e 57ab fdbc b032 0abd 4e44 6b3e
000001a0: 25da db3c c35a 5cbd a8a0 6e3e c545 6f3e
000001b0: 2f4a f13c 027e 7abd 1359 5c3e 59f0 773e
000001c0: 73ec 383d 52ee 933e 0b2b 2f3e a02f 603e
000001d0: e19a 2a3e e507 2cbe 3692 99be 7bfd fcbd
000001e0: 82c2 763d 99b2 31be 9361 bf3c a394 fe3d
000001f0: aa87 8b3d 5ab2 4b3e 14d4 b6bd d892 babd
00000200: 3d5a 88bd 39e8 e8bc d840 14be 216d 87bd
00000210: 1b49 723e 0958 77be 54fa 03be a564 9ebd
00000220: 168b 583d 4e8a 7cbc aa08 29be 865b 6d3d
00000230: e3e0 833d 9146 b83d 6612 b9bd 3e3d 63bd
00000240: eb0b e63d 02e4 063e 5b93 aebc beb6 4bbc
00000250: 6218 dc3d cf02 90be be7d 4bbe 3790 37be
00000260: ad7f 36be c72d 74be 36a4 0bbd 7b10 abbd
00000270: 4ebc 1c3e 9be8 283a 2c71 a43d 8f9f db3e
00000280: cc18 373e 1acb 613d 2674 a6bd 3c2a 8dbc
00000290: f353 41bc b13c 10bb 9bb2 27bd f8ef ac3c
000002a0: 4c51 513d 6f0e 85bd c5af c6bc f1ff f23d
000002b0: 8b30 47be 876c 96bd d3d3 0cbe 8488 33be
000002c0: 39f1 00bc 07aa 34be 087b 73bd ee93 14bd
000002d0: c45c 963c 61be 67be c6ba 3b3e 7950 4abd
000002e0: 2d33 213e c87f b13e 14f8 d0bc c428 ca3e
000002f0: 5167 aa3e 01fe 5bbb 8fa9 de3d d999 023d
00000300: 3143 77bd afd7 e3bd b671 663d 8200 e93d
00000310: 178a 653d 6509 49bd a084 d43e 49fb 163e
00000320: 55dc 19be 572f 193e 2d2f b0bd 1680 1ebe
00000330: 1158 6cbd cadf 8dbe dd2f 9ebe af6b 88be
00000340: f95a 8ebe b101 3ebd 44b0 40be 0ec0 1ebe
00000350: 8337 b4bd 9053 80be fd5e ea3d 042c 8d3d
00000360: bccb e93d ba96 993d f4de 2abd 4de2 4ebd
00000370: ab7d 533e 716f 663c ec62 8e3c 0e78 bf3d
00000380: 9484 38be 8dc0 37bd d64a 23bd 7c23 34bd
00000390: 9cc8 67bd ad18 2f3e d0a5 09be 2d19 023e
000003a0: b05e d73d e8fb b13d 7b94 fd3e 1192 283e
000003b0: 8f3e e2bd 1cc0 973e 25df e0bd 323f 50be
000003c0: cb50 1abc 0ffc a73d 3316 0bbf 0169 ccbc
000003d0: c532 8f3d c01e 523c d587 323d 7c33 713d
000003e0: e23c c13d 6efc 393c bf14 073d fcfd 03b9
000003f0: 8d00 96be f3ca 853e 685d 053e e2fd 16bf

conv3.bias f4 [16]
-0.7367021 -0.76253897 0.024398552 -0.1259327 0.017244658 -0.07070422 -0.32155943 -0.11169401
-0.1695032 -0.06670165 -0.43525213 -0.46652207 -0.19288369 0.429191 -0.18386053 -0.00024073948
00000000: 8298 3cbf c135 43bf 79df c73c 80f4 00be
00000010: ab44 8d3c 60cd 90bd 70a3 a4be d4bf e4bd
00000020: 3f92 2dbe e09a 88bd 5ed9 debe fbdb eebe
00000030: 4d83 45be ecbe db3e ef45 3cbe 036f 7cb9

conv3.weight f4 [16, 6, 3, 3]
-0.08773715 0.048817564 -0.13279249 -0.012712789 0.06914323 -0.101158515 -0.16141544 -5.9845945e-07
-0.18110518 -0.6946778 0.5086546 -0.009302716 0.19384474 0.4765422 -0.33489367 0.23634781
-0.111706726 -0.2579854 0.063012 0.084556445 -0.02909523 -0.029287012 0.0821974 0.14269741
-0.07201175 0.16526711 -0.015870929 -0.0048019015 0.28314918 -0.16889037 -0.012974383 0.10390826
-0.079876855 0.08813032 -0.25971466 0.11019332 -0.041617095 -0.17215295 0.26989776 -0.24371907
0.08389564 -0.11194704 -0.009201314 0.070100054 -0.34949845 0.041384406 -0.1452461 0.007139448
-0.09819157 -0.15451096 0.23302469 -0.18887891 0.06993344 0.24529852 -0.106408894 -0.07421619
0.07664936 -0.04081967 0.034135573 0.07168027 -0.13165957 0.090539426 -0.022503892 -0.029483795
-0.31197056 -0.09454385 0.1870146 0.027018588 0.10510483 -0.29826462 -0.23116295 -0.55988926
-0.07451456 -0.1461871 0.11640742 -0.033993788 0.037072856 0.26323104 0.062722825 0.12351143
-0.09240486 0.06707278 0.050751813 0.15713675 0.13954526 0.002217936 0.050364926 -0.12781338
-0.030131202 -0.20514193 0.36399227 -0.04470866 0.40169397 0.015907953 -0.004053101 0.3687629
-0.098345175 -0.14502065 0.26159945 0.20397715 0.51683056 0.122889824 -0.0032186697 0.502274
0.10617193 0.03937998 0.33171517 0.08234856 0.029051451 0.07191292 -0.0041155973 -0.05118623
-0.022773078 -0.03192595 0.013677787 0.051186956 0.045665808 0.4377969 1.019571 0.9689272
-0.4833153 -0.12231604 0.009210277 -0.6792555 -1.2414783 -0.865794 -0.10583066 -0.01840045
0.23576143 -0.079801686 -0.061080154 0.14351898 -0.1541217 0.13095257 -0.011149846 0.10047533
0.11690379 0.046534825 -0.23598827 -0.393436 -0.09530063 -0.123672225 -0.3878698 0.06665487
0.30580235 0.62636274 0.6089317 -0.21459398 -0.36402687 -0.094182916 -0.2649558 -0.5636087
-0.73493683 0.11949364 0.1637939 0.1438415 0.08688309 0.25441766 0.24458887 -0.37395796
-0.26017338 0.07969197 0.061401285 0.0526872 -0.061914816 0.05699206 0.03153091 0.122576274
-0.117870346 0.116923235 0.10675652 -0.38864127 -0.021207346 -0.08395793 -0.4832553 0.06190071
-0.09721173 -0.05194718 0.2292247 -0.43883166 0.021074925 -0.02441873 -0.03183441 0.106155
0.049573433 -0.12088266 0.1439237 -0.032920897 -0.1083795 0.02474919 0.15039933 0.0016249801
0.008334763 0.14670116 -0.059144825 0.064203456 -0.13704126 -0.06939022 0.22287484 -0.3820099
0.11592718 -0.07182277 0.06348969 0.35798734 -0.15314087 0.36147994 -0.11591006 -0.010649689
0.004518746 0.11634701 0.0336286 0.012153615 0.123194225 -0.06821255 -0.08926584 0.1455959
0.12133692 0.0027770926 0.12696718 -0.044075653 0.14632155 -0.022558268 -0.039963502 0.18798432
0.104541175 0.5123415 0.61305904 0.0015896981 0.10015334 -0.21436787 -0.6618243 -0.633321
-0.6660599 -0.6254264 0.1381713 0.18727653 -0.055188503 0.17228957 0.19632721 0.009512299
0.01569405 -0.058083847 0.06783891 -0.018127486 -0.13762656 -0.0056732045 -0.09858249 -0.0098255295
-0.16915976 -0.047093436 -0.0353814 0.052233316 -0.04224979 0.17311308 0.28094792 0.32530773
00000000: 89af b3bd edf4 473d c1fa 07be 4d49 50bc
00000010: f79a 8d3d 322c cfbd 174a 25be d2a5 20b5
00000020: a373 39be 68d6 31bf 3037 023f 6b6a 18bc
00000030: 3c7f 463e 57fd f33e 2f77 abbe 2905 723e
00000040: 7fc6 e4bd aa16 84be 6f0c 813d ee2b ad3d
00000050: 1f59 eebc 51eb efbc 1c57 a83d 451f 123e
00000060: e57a 93bd c83b 293e c003 82bc 4559 9dbb
00000070: eef8 903e 99f1 2cbe 8292 54bc dbcd d43d
00000080: 7a96 a3bd ab7d b43d 52f9 84be 09ad e13d
00000090: b076 2abd dd48 30be 0a30 8a3e 7e91 79be
000000a0: 7ad1 ab3d 7d44 e5bd 1cc1 16bc 9e90 8f3d
000000b0: 76f1 b2be b282 293d 65bb 14be 08f2 e93b
000000c0: a918 c9bd 1f38 1ebe 069e 6e3e 7969 41be
000000d0: 4339 8f3d 892f 7b3e e8ec d9bd a8fe 97bd
000000e0: 57fa 9c3d 8732 27bd bed1 0b3d 1bcd 923d
000000f0: c4d1 06be bc6c b93d 155a b8bc 0088 f1bc
00000100: 9bba 9fbe 35a0 c1bd c180 3f3e 1656 dd3c
00000110: 3341 d73d 24b6 98be fbb5 6cbe e754 0fbf
00000120: 179b 98bd 12b2 15be 0367 ee3d 123d 0bbd
00000130: b5d9 173d 38c6 863e d374 803d 90f3 fc3d
00000140: c23e bdbd 745d 893d 22e1 4f3d 75e8 203e
00000150: f4e4 0e3e cb5a 113b 744b 4e3d 83e1 02be
00000160: b6d5 f6bc ba10 52be 325d ba3e 6e20 37bd
00000170: d5aa cd3e 6551 823c e0cf 84bb 7ece bc3e
00000180: 3269 c9bd 4b80 14be 5df0 853e 63df 503e
00000190: 024f 043f a9ad fb3d 51f0 52bb 0795 003f
000001a0: ab70 d93d e74c 213d 92d6 a93e 5da6 a83d
000001b0: 4ffd ed3c 1547 933d 22dc 86bb a7a8 51bd
000001c0: 9b8e babc c9c4 02bd cc18 603c 6aa9 513d
000001d0: 120c 3b3d ea26 e03e 4d81 823f 9d0b 783f
000001e0: 1a75 f7be d580 fabd b4e6 163c b0e3 2dbf
000001f0: c3e8 9ebf ada4 5dbf bfbd d8bd 8abc 96bc
00000200: 726b 713e 116f a3bd 2f2f 7abd a4f6 123e
00000210: 14d2 1dbe 6e18 063e d8ad 36bc 03c6 cd3d
00000220: 416b ef3d 4d9b 3e3d e9a6 71be 7270 c9be
00000230: fa2c c3bd dd47 fdbd df96 c6be 5982 883d
00000240: 2092 9c3e 4f59 203f f3e2 1b3f 86be 5bbe
00000250: bb61 babe f9e2 c0bd 49a8 87be a948 10bf
00000260: d224 3cbf 15b9 f43d 97b9 273e 304b 133e
00000270: c3ef b13d 0843 823e 8175 7a3e 6b77 bfbe
00000280: 7235 85be 8b35 a33d ea7f 7b3d 89ce 573d
00000290: 649a 7dbd 8270 693d 8e26 013d 4509 fb3d
000002a0: 0266 f1bd 7375 ef3d 2aa3 da3d fdfb c6be
000002b0: 07bb adbc 23f2 abbd 3d6d f7be 998b 7d3d
000002c0: f216 c7bd 91c6 54bd e1b9 6a3e 8bae e0be
000002d0: 52a5 ac3c ca09 c8bc cc64 02bd cb67 d93d
000002e0: 830d 4b3d 5491 f7bd bc60 133e 10d8 06bd
000002f0: 12f6 ddbd d0be ca3c 4802 1a3e 49fd d43a
00000300: 888e 083c d438 163e d841 72bd 1a7d 833d
00000310: 8b54 0cbe 761c 8ebd 4d39 643e cd96 c3be
00000320: 3b6b ed3d d117 93bd e206 823d 1e4a b73e
00000330: f6d0 1cbe e613 b93e 4162 edbd 087c 2ebc
00000340: fd11 943b 5747 ee3d 25be 093d f51f 473c
00000350: 414d fc3d 05b3 8bbd 02d1 b6bd 1717 153e
00000360: 7e7f f83d e2ff 353b af03 023e ac88 34bd
00000370: 51d5 153e 1ecc b8bc c5b0 23bd f67e 403e
00000380: af19 d63d d028 033f 70f1 1c3f 6b5d d03a
00000390: 321d cd3d 4083 5bbe 516d 29bf 5321 22bf
000003a0: e782 2abf f21b 20bf c77c 0d3e 6bc5 3f3e
000003b0: 570d 62bd ad6c 303e 000a 493e 79d9 1b3c
000003c0: cf90 803c 54e9 6dbd 20ef 8a3d 1880 94bc
000003d0: faed 0cbe 4ae6 b9bb 9ee5 c9bd 42fb 20bc
000003e0: 3738 2dbe 0ce5 40bd 16ec 10bd 9af2 553d
000003f0: 1e0e 2dbd 8e44 313e 68d8 8f3e bc8e a63e

fc1.bias f4 [120]
-0.04925253 -0.030699091 -0.004132498 0.0806982 0.04013515 0.038974293 -0.051406123 -0.022658385
-0.010993833 0.070794664 -0.00517191 -0.012463147 -0.0715592 -0.052429404 -0.042255957 0.08506839
-0.03731447 0.0034494977 -0.014649344 0.0040568956 -0.008751057 0.05878131 -0.099782996 0.17967862
0.007158329 0.020661354 0.0075541963 0.064691335 0.008776385 0.022565767 -0.00089385564 -0.009911762
-0.009966115 0.046423946 -0.053147726 -0.051102348 -0.02684905 -0.03625737 -0.067838974 0.009255803
-0.005408393 0.06695802 0.04156319 -0.018413233 -0.028599747 -0.05452703 -0.110550836 0.033952978
-0.047292255 -0.04532624 -0.031787988 0.024158463 -0.033586886 -0.0031525954 0.0049353386 -0.022471927
0.09170428 -0.0011568756 0.08495092 -0.012651506 0.0060477373 -0.027126854 0.02211942 0.015485256
-0.00079021463 -0.049230628 0.0051691905 0.025059132 0.060280193 -0.013932871 0.010045766 -0.005257583
0.041067004 -0.044906735 0.065867394 0.03390014 0.06866648 -0.030042483 0.062052835 0.10126951
0.06916004 0.02207837 0.00961785 -0.02887606 0.022545772 -0.032651205 -0.015231081 0.09480347
-0.06089153 -0.04947562 -0.04975042 0.083703704 -0.045420893 0.064761624 0.06211627 0.027210664
-0.029836962 0.06547396 -0.012774785 0.02459243 0.09211656 0.10638991 0.021652553 0.118794404
-0.04123037 0.039646 0.025431342 0.07919844 0.017179796 0.051926404 0.04921528 0.081112616
0.049931012 0.0016411735 -0.07168385 -0.04011702 -0.08030605 -0.036526993 0.013805557 0.067374505
00000000: 05bd 49bd a97c fbbc e869 87bb 1945 a53d
00000010: c164 243d 82a3 1f3d 3a8f 52bd 149e b9bc
00000020: 7a1f 34bc cbfc 903d 2079 a9bb 3a32 4cbc
00000030: a18d 92bd 37c0 56bd 9514 2dbd 5638 ae3d
00000040: 0fd7 18bd f810 623b cd03 70bc b5ef 843b
00000050: 9860 0fbc acc4 703d 075b ccbd acfd 373e
00000060: 6a90 ea3b 0042 a93c 3189 f73b e47c 843d
00000070: d4ca 0f3c d8db b83c a351 6aba f164 22bc
00000080: ea48 23bc 0927 3e3d 6eb1 59bd b250 51bd
00000090: 8af2 dbbc 9c82 14bd 29ef 8abd a7a5 173c
000000a0: e438 b1bb 4921 893d 2a3e 2a3d 59d7 96bc
000000b0: 044a eabc bc57 5fbd 7a68 e2bd 4712 0b3d
000000c0: 86b5 41bd 02a8 39bd 1f34 02bd f8e7 c53c
000000d0: 6792 09bd c69b 4ebb 9fb8 a13b 0c17 b8bc
000000e0: 74cf bb3d 4ea2 97ba bffa ad3d 4348 4fbc
000000f0: 192c c63b 2339 debc c933 b53c dfb5 7d3c
00000100: 6826 4fba 0ea6 49bd 5062 a93b cf48 cd3c
00000110: 5de8 763d b246 64bc ff96 243c ce47 acbb
00000120: e035 283d 20f0 37bd 7ce5 863d e0da 0a3d
00000130: 03a1 8c3d a71b f6bc 1d2b 7e3d 6466 cf3d
00000140: c7a3 8d3d b3dd b43c 3094 1d3c 7d8d ecbc
00000150: e9b1 b83c 45bd 05bd c98b 79bc 5228 c23d
00000160: 6669 79bd f3a6 4abd 19c7 4bbd d96c ab3d
00000170: 420b 3abd bea1 843d a16d 7e3d e6e8 de3c
00000180: a56c f4bc 3617 863d 554d 51bc 1076 c93c
00000190: 9ba7 bc3d f4e2 d93d b260 b13c 7b4a f33d
000001a0: 2de1 28bd d863 223d 6455 d03c cb32 a23d
000001b0: a5bc 8c3c c8b0 543d f695 493d 5f1e a63d
000001c0: 7684 4c3d a51c d73a fbce 92bd bf51 24bd
000001d0: 8077 a4bd 549d 15bd b430 623c a5fb 893d

fc1.weight f4 [120, 400]
0.10159212 0.041052934 -0.051587384 -0.10912646 -0.17631163 0.17584194 0.054648146 0.1286401
-0.24671485 -0.1810317 -0.08710132 0.076790795 0.04414942 -0.05087236 -0.046567075 -0.084419265
0.06782869 -0.028974982 -0.13221447 0.06120181 -0.0019762279 0.10700878 -0.038484782 -0.010769193
0.051409937 0.1329503 0.020956554 -0.1352474 -0.076678775 -0.0750366 0.11791437 -0.009848664
-0.076408416 0.02784863 -0.06061265 -0.039685816 -0.04448739 0.05817961 0.086504355 0.07830381
-0.050487846 -0.062731795 -0.010968747 -0.012464154 0.07803858 -0.08383044 0.0050504673 -0.011816836
0.039631486 -0.060435347 -0.06255571 -0.12151592 -0.01247981 0.04311864 -0.036597054 0.010990963
-0.044044707 0.025131704 0.07637169 0.014127237 -0.058401894 -0.14561461 -0.0057942453 0.03792944
-0.047276106 -0.15495348 -0.17581718 0.030750128 0.013747921 -0.08857443 -0.05195161 0.07187268
0.13486472 0.042460345 -0.033247806 0.066578574 -0.05661547 0.06074414 -0.04179098 -0.026036337
-0.014399903 -0.013552038 0.002738192 -0.061880723 -0.024522083 -0.0073393327 0.0042930963 -0.05406035
0.02939592 0.031155402 -0.012133268 -0.037909 -0.011237375 0.040885128 0.09137022 -0.02491512
-0.009730246 0.03134438 0.11762582 0.047403257 -0.050969224 0.021901349 0.07291505 0.0051667537
-0.12895812 0.0147801265 -0.0643106 0.06699972 -0.011857398 -0.10429659 0.0057959277 -0.048733555
0.055825714 0.12017631 -0.017051138 -0.039205838 0.029079152 -0.046127595 0.02582344 0.054833863
-0.02887119 0.016581954 -0.07031747 0.05167369 0.08838154 -0.0626155 -0.07652909 0.019193815
-0.113425314 0.08918959 -0.029297257 -0.05762837 -0.073482394 -0.006364498 0.16256426 -0.07331654
-0.09494561 -0.042763162 -0.066616744 0.16989934 -0.07112836 -0.071265414 0.060428932 -0.059556264
-0.07761022 -0.11514822 -0.06727937 -0.0014992275 -0.0050941305 -0.09632393 0.08323817 -0.064364515
-0.27013978 0.052796368 0.041120976 0.0417118 -0.031190628 -0.16001712 0.100632966 0.18153471
-0.0041015632 0.06520991 -0.056469254 -0.020958755 0.09667789 -0.07486247 0.032462947 -0.0041435473
-0.09584952 -0.09205086 -0.06472086 0.14925148 -0.056033365 -0.049180064 -0.006545097 -0.014070731
-0.017032672 -0.043940164 -0.15679933 -0.1363741 0.056822326 -0.0940531 0.14023462 -0.013984226
0.068809666 0.06335526 0.11553887 0.109150976 0.041710444 -0.0653969 0.004490598 0.097181745
0.19251835 -0.010866213 -0.2446875 0.107016645 0.044021253 0.09317795 -0.060852688 -0.12548961
0.09056243 0.031070258 0.082175486 0.040126935 -0.04311671 0.012867638 -0.04541125 0.052854687
-0.12708217 -0.06968158 -0.036695708 -0.037084296 -0.017077675 -0.082117245 -0.12597668 -0.037744522
0.07122017 0.06742602 -0.056175634 0.028332032 -0.06408315 0.17371851 0.041958548 -0.016960813
0.16073479 0.094703436 0.13264905 0.1323318 0.1329261 -0.12177665 0.020644192 0.054506138
0.04215701 0.00963617 -0.13749063 -0.045886528 -0.003747961 -0.03166558 -0.018224834 0.035209153
-0.07159772 -0.015484004 -0.01597783 -0.0006212498 0.058904056 -0.022182284 0.06425232 -0.10424597
-0.07699514 0.16058645 0.14318396 0.05985048 0.051520474 0.039830394 -0.023324717 0.071178235
00000000: 880f d03d 1f27 283d 4b4d 53bd b27d dfbd
00000010: 098b 34be e90f 343e bcd6 5f3d 3bba 033e
00000020: d1a2 7cbe 6060 39be 2d62 b2bd 7e44 9d3d
00000030: 06d6 343d 895f 50bd 1ebd 3ebd 02e4 acbd
00000040: c5e9 8a3d f15c edbc 3b63 07be c0ae 7a3d
00000050: 9a83 01bb 6b27 db3d 38a2 1dbd 4571 30bc
00000060: 3a93 523d 2024 083e 14ad ab3c 4b7e 0abe
00000070: c309 9dbd caac 99bd 177d f13d 4a5c 21bc
00000080: 047c 9cbd cf22 e43c f844 78bd 988d 22bd
00000090: 6938 36bd be4d 6e3d 3229 b13d bf5d a03d
000000a0: 58cc 4ebd 8779 80bd 42b6 33bc 7336 4cbc
000000b0: b1d2 9f3d 4baf abbd 647e a53b 679b 41bc
000000c0: a054 223d 0e8b 77bd 351d 80bd 57dd f8bd
000000d0: 1e78 4cbc 2c9d 303d cbe6 15bd 7113 343c
000000e0: 3968 34bd 01e1 cd3c c368 9c3d ed75 673c
000000f0: d336 6fbd ff1b 15be a7dd bdbb e75b 1b3d
00000100: 97a4 41bd 20ac 1ebe 6b09 34be b1e7 fb3c
00000110: f63e 613c 8366 b5bd 36cb 54bd fc31 933d
00000120: fa19 0a3e e6ea 2d3d da2e 08bd 595a 883d
00000130: a0e5 67bd d9ce 783d 052d 2bbd 284a d5bc
00000140: 92ed 6bbc 5e09 5ebc 3d73 333b a476 7dbd
00000150: 89e2 c8bc c97e f0bb 1aad 8c3b 636e 5dbd
00000160: b6cf f03c 9d39 ff3c 9dca 46bc 7846 1bbd
00000170: f81c 38bc 2a77 273d 4f20 bb3d cb1a ccbc
00000180: 9c6b 1fbc f762 003d cee5 f03d eb29 423d
00000190: 1bc5 50bd 756a b33c 7c54 953d df4d a93b
000001a0: 990d 04be 5828 723c 47b5 83bd 2637 893d
000001b0: 8845 42bc 7399 d5bd c4eb bd3b d69c 47bd
000001c0: 81a9 643d ff1e f63d d4ae 8bbc 4d96 20bd
000001d0: 6737 ee3c 4af0 3cbd ae8b d33c 7999 603d
000001e0: 4683 ecbc e1d6 873c 9b02 90bd cba7 533d
000001f0: 6101 b53d 8e3c 80bd 49bb 9cbd 593c 9d3c
00000200: 884b e8bd 08a9 b63d cd00 f0bc ba0b 6cbd
00000210: f07d 96bd 478d d0bb 3f77 263e fb26 96bd
00000220: d872 c2bd 6d28 2fbd 5c6e 88bd 18fa 2d3e
00000230: bfab 91bd 9af3 91bd 5484 773d 45f1 73bd
00000240: 1bf2 9ebd d4d2 ebbd c4c9 89bd ba81 c4ba
00000250: aaec a6bb 7b45 c5bd c678 aa3d 8bd1 83bd
00000260: c34f 8abe 0141 583d 786e 283d fed9 2a3d
00000270: 7d83 ffbc 87db 23be a818 ce3d 3ce4 393e
00000280: 6866 86bb c68c 853d 4e4c 67bd b2b1 abbc
00000290: 0fff c53d 7f51 99bd def7 043d 98c6 87bb
000002a0: c14c c4bd 2985 bcbd 5f8c 84bd 61d5 183e
000002b0: 3e83 65bd 0971 49bd 4178 d6bb ec88 66bc
000002c0: 1a88 8bbc 9afa 33bd 0190 20be a7a5 0bbe
000002d0: 87be 683d e99e c0bd aa99 0f3e 181e 65bc
000002e0: 15ec 8c3d 67c0 813d a59f ec3d 8c8a df3d
000002f0: 92d8 2a3d cfee 85bd de25 933b 3907 c73d
00000300: 8823 453e 3308 32bc 5c8f 7abe 8b2b db3d
00000310: a14f 343d 15d4 be3d ab40 79bd 5980 00be
00000320: cc78 b93d 0e87 fe3c 9f4b a83d 245c 243d
00000330: 269b 30bd c9d2 523c 2601 3abd 287e 583d
00000340: d421 02be 37b5 8ebd 3d4e 16bd b4e5 17bd
00000350: 7be6 8bbc 162d a8bd 0800 01be 009a 1abd
00000360: e1db 913d a716 8a3d 6c18 66bd 9418 e83c
00000370: 073e 83bd 44e3 313e badc 2b3d 67f1 8abc
00000380: a997 243e e0f3 c13d 27d5 073e fd81 073e
00000390: c81d 083e 0966 f9bd 021e a93c d441 5f3d
000003a0: d4ac 2c3d 07e1 1d3c 58ca 0cbe 83f3 3bbd
000003b0: 5aa0 75bb c4b3 01bd 3f4c 95bc 7937 103d
000003c0: d3a1 92bd 9fb0 7dbc f0e3 82bc 5edb 22ba
000003d0: 6145 713d 9fb7 b5bc b896 833d e97e d5bd
000003e0: a1af 9dbd c670 243e d19e 123e c725 753d
000003f0: 2207 533d 3225 233d 7a13 bfbc e5c5 913d

fc2.bias f4 [48]
0.16671073 0.18498594 -0.13075231 0.029332895 -0.00894886 -0.11167297 -0.084323056 0.048606116
0.03156838 -0.060193665 0.32080224 0.07343849 0.09212828 -0.03411191 0.24106392 0.008144289
-0.01671418 -0.021476552 -0.031241698 0.09903066 -0.098580636 -0.022971522 -0.057295784 -0.0797829
-0.04227369 0.025320675 0.01011145 0.08642056 0.08133138 0.20720504 0.070054255 -0.061119705
-0.021864563 0.013997768 0.018704908 0.021686517 -0.0024959035 0.14703274 -0.06740372 -0.11541401
0.046208356 -0.065618455 -0.08717343 -0.062038776 0.042391144 0.20956035 0.23410237 0.10322419
00000000: 38b6 2a3e f46c 3d3e efe3 05be 8a4b f03c
00000010: 3d9e 12bc ccb4 e4bd 91b1 acbd 3517 473d
00000020: d84d 013d a28d 76bd 3140 a43e eb66 963d
00000030: c0ad bc3d eeb8 0bbd 76d9 763e a06f 053c
00000040: 2dec 88bc 98ef afbc 97ee ffbc 96d0 ca3d
00000050: a5e4 c9bd c62e bcbc fcae 6abd 3865 a3bd
00000060: 2d27 2dbd 4e6d cf3c 7faa 253c 43fd b03d
00000070: 1191 a63d 8f2d 543e 9b78 8f3d a858 7abd
00000080: 501d b3bc e556 653c 093b 993c eca7 b13c
00000090: 5092 23bb c08f 163e f60a 8abd 2e5e ecbd
000000a0: f944 3d3d f862 86bd fc87 b2bd 5f1c 7ebd
000000b0: 56a2 2d3d fd96 563e 88b8 6f3e 3467 d33d

fc2.weight f4 [48, 120]
0.08040959 0.09821658 -0.019758515 0.036942013 0.1743984 -0.18122905 -0.11506636 -0.2381442
0.18093951 0.054070376 -0.16390267 0.23462056 0.026277661 0.060834497 0.2428452 0.2705253
-0.1863598 -0.026687393 -0.18632008 0.22149515 -0.099675976 -0.14749663 -0.012154607 -0.24649712
-0.009408532 0.14043692 -0.020165775 0.29937235 -0.08094858 -0.015232347 0.044957895 -0.2683533
0.03585386 -0.2655922 0.07451547 -0.009302995 0.28666204 -0.2231103 0.15504469 0.010848708
0.2515504 0.2785959 -0.17737654 0.38109863 -0.10073399 -0.35427576 -0.22684038 0.30982268
-0.1286722 -0.061272793 -0.058555756 -0.15404029 -0.1374796 -0.059123762 -0.30782348 0.013975503
0.08697176 -0.10845095 -0.18041034 0.14417987 -0.09233314 -0.16121168 0.07615606 -0.078196004
-0.0034133734 -0.18154986 0.31028062 -0.111415215 -0.077537954 0.05617418 -0.084900565 -0.051851816
0.17020959 0.017235853 0.19178827 -0.13716078 -0.075719565 0.044364 0.07714304 0.029231269
0.0861464 -0.07443129 -0.30759376 0.057000432 -0.17004228 -0.020461522 0.07151811 0.037828494
-0.13563672 -0.0757104 -0.06796946 0.19073266 -0.10765552 0.08714804 -0.1888241 0.07042175
-0.04815151 -0.06451968 0.039860096 0.10119989 0.085461445 0.18046097 -0.08538271 0.2715362
-0.09532161 -0.1849003 -0.16238014 -0.14168014 0.28271157 -0.0765467 -0.29334682 0.1736862
0.22813705 0.16885841 0.026028598 0.25441507 -0.13175926 0.12844832 0.26866582 0.27923533
-0.049276337 0.07961709 0.27927506 0.11818197 -0.029725535 -0.11271748 -0.15432467 -0.19569634
0.14441286 0.14498185 -0.09563128 0.031147653 0.0002515414 -0.2112874 -0.058204837 0.06258426
-0.15935615 0.0152182225 0.04357577 -0.09297019 0.018330853 -0.057401005 0.023706023 0.15264477
-0.012751498 0.16708753 0.026173357 -0.07431839 -0.08317346 0.08012351 -0.01664323 -0.05170735
-0.08055998 0.12228078 0.14848126 -0.24719763 0.22216314 -0.18732336 0.05360805 -0.24644354
-0.17076316 0.22009216 -0.15445209 0.10433871 -0.21717493 0.0123720905 -0.20027447 -0.28827596
0.2138761 0.07189773 0.019168196 0.18923551 0.05632739 -0.073747836 -0.28158832 0.014941656
0.07170844 0.120973736 0.16028498 -0.038888887 0.0058214557 -0.09898008 0.25050566 -0.060287442
0.012051355 0.2271833 0.10044652 -0.2735575 0.21214831 -0.014926087 -0.065655366 0.06917374
0.26473096 -0.21463977 0.4336849 0.3630751 0.18556952 -0.013646431 0.0077688326 -0.13185139
0.273036 0.068143524 -0.2809949 -0.2261879 0.08833084 0.38296592 0.10985245 0.22634375
-0.19849108 -0.26606998 -0.06713272 0.09731227 -0.042624213 0.121994816 0.20445867 -0.3034175
0.02832706 0.2996107 0.015172956 -0.11082312 0.13270749 -0.2999863 -0.051783297 -0.24521312
-0.051985893 0.12675002 0.093744494 0.26960376 0.026805682 -0.051273257 0.006275715 0.029721612
0.010715376 0.11436582 -0.19802485 -0.021684969 -0.03785806 0.22684191 -0.040953435 0.23403977
0.09484767 -0.028927956 0.16906342 -0.110538565 0.030120838 -0.040653616 0.13239563 -0.007161987
-0.09101799 -0.1248897 0.20074883 0.27556154 0.059850466 0.27235487 -0.1088821 0.18001944
00000000: c8ad a43d c625 c93d 9cdc a1bc 8250 173d
00000010: 7f95 323e 1c94 39be e9a7 ebbd 13dc 73be
00000020: 3548 393e e678 5d3d 1ad6 27be 5f40 703e
00000030: 4044 d73c 982d 793d 69ac 783e 4b82 8a3e
00000040: 1ad5 3ebe 859f dabc b1ca 3ebe a0cf 623e
00000050: eb22 ccbd 5b09 17be 1e24 47bc be69 7cbe
00000060: 3e26 1abc b2ce 0f3e b232 a5bc 5547 993e
00000070: 5ec8 a5bd 1891 79bc c525 383d 9b65 89be
00000080: 7fdb 123d b3fb 87be 919b 983d 976b 18bc
00000090: 5ec5 923e 0777 64be 09c4 1e3e c8be 313c
000000a0: 37cb 803e 1fa4 8e3e 32a2 35be 5c1f c33e
000000b0: 9f4d cebd a263 b5be d848 68be 14a1 9e3e
000000c0: a5c2 03be 2ef9 7abd 29d8 6fbd bdbc 1dbe
000000d0: 74c7 0cbe c22b 72bd 0a9b 9dbe 82f9 643c
000000e0: 401e b23d 881b debd 7dbd 38be e3a3 133e
000000f0: 2819 bdbd ad14 25be b5f7 9b3d 3a25 a0bd
00000100: e7b2 5fbb 35e8 39be 1add 9e3e a92d e4bd
00000110: 38cc 9ebd e616 663d 59e0 adbd 9262 54bd
00000120: 6c4b 2e3e 3432 8d3c 2564 443e e073 0cbe
00000130: dc12 9bbd 07b7 353d 2cfd 9d3d 6a76 ef3c
00000140: 866d b03d 6f6f 98bd ee7c 9dbe 4979 693d
00000150: 901f 2ebe ec9e a7bc 1678 923d 0df2 1a3d
00000160: 5ae4 0abe 0e0e 9bbd 9233 8bbd 6c4f 433e
00000170: 7f7a dcbd ac7a b23d 1b5b 41be 4739 903d
00000180: 853a 45bd e522 84bd 5744 233d e341 cf3d
00000190: 6906 af3d c3ca 383e 21dd aebd cb06 8b3e
000001a0: fa37 c3bd 8156 3dbe fb46 26be 9914 11be
000001b0: 92bf 903e 84c4 9cbd 8e31 96be ccda 313e
000001c0: c29c 693e 38e9 2c3e ed39 d53c b142 823e
000001d0: e6eb 06be f587 033e 918e 893e eff7 8e3e
000001e0: fcd5 49bd 490e a33d 24fd 8e3e 6409 f23d
000001f0: f782 f3bc 6cd8 e6bd 4907 1ebe 9f64 48be
00000200: f7e0 133e 1f76 143e 55da c3bd 5d29 ff3c
00000210: 51e1 8339 b95b 58be 3268 6ebd 2d2c 803d
00000220: 422e 23be da55 793c 827c 323d 2867 bebd
00000230: 962a 963c 511d 6bbd 2233 c23c e94e 1c3e
00000240: a9eb 50bc fe18 2b3e 8269 d63c 3d34 98bd
00000250: d956 aabd cb17 a43d 6257 88bc 16cb 53bd
00000260: a1fc a4bd 586e fa3d 790b 183e 6021 7dbe
00000270: bc7e 633e b2d1 3fbe 1d94 5b3d b25b 7cbe
00000280: 8adc 2ebe d75f 613e b028 1ebe 89af d53d
00000290: 1b63 5ebe 4fb4 4a3c c014 4dbe e898 93be
000002a0: 5602 5b3e 1e3f 933d 9f06 9d3c f4c6 413e
000002b0: 8db7 663d 1b09 97bd 582c 90be d9cd 743c
000002c0: e0db 923d 14c1 f73d bf21 243e f449 1fbd
000002d0: e9c1 be3b 11b6 cabd 4742 803e f7ef 76bd
000002e0: 0c73 453c bda2 683e e8b6 cd3d bb0f 8cbe
000002f0: 683d 593e 8c8c 74bc 5276 86bd f6aa 8d3d
00000300: d18a 873e 87ca 5bbe f20b de3e fbe4 b93e
00000310: f005 3e3e 4895 5fbc b191 fe3b 0d04 07be
00000320: 60cb 8b3e d58e 8b3d 90de 8fbe cd9d 67be
00000330: cde6 b43d 1c14 c43e 52fa e03d a8c6 673e
00000340: 3f41 4bbe 533a 88be e17c 89bd a84b c73d
00000350: ba96 2ebd 6bd8 f93d 9d5d 513e 8a59 9bbe
00000360: 270e e83c 9366 993e fd97 783c 3bf7 e2bd
00000370: 79e4 073e ce97 99be b91a 54bd 2619 7bbe
00000380: 29ef 54bd c2ca 013e 1dfd bf3d 8109 8a3e
00000390: 9797 db3c e803 52bd 83a4 cd3b bd7a f33c
000003a0: 8b8f 2f3c a138 ea3d 07c7 4abe ada4 b1bc
000003b0: 0e11 1bbd 3f49 683e cabe 27bd 1fa8 6f3e
000003c0: 7f3f c23d 52fa ecbc f61e 2d3e 0b62 e2bd
000003d0: fabf f63c 6884 26bd b892 073e 1aaf eabb
000003e0: a467 babd 2cc6 ffbd 1a91 4d3e 6716 8d3e
000003f0: c325 753d 1972 8b3e 94fd debd 0457 383e

fc3.bias f4 [24]
0.08392704 0.23612638 -0.27832565 -0.030790968 -0.08559094 0.10722059 0.13274033 0.09148244
0.24128374 -0.25028828 0.09097749 -0.09990924 -0.09541776 -0.28866208 -0.22353195 -0.4596093
0.09376044 0.25383526 0.2889943 0.3429411 0.0402617 0.27252525 -0.17871602 0.0944238
00000000: f1e1 ab3d 1dcb 713e b380 8ebe 573d fcbc
00000010: 4e4a afbd 7896 db3d 15ed 073e 255b bb3d
00000020: 1613 773e c925 80be 6852 ba3d 379d ccbd
00000030: 636a c3bd 84cb 93be 8fe5 64be e951 ebbe
00000040: 7905 c03d b2f6 813e 10f7 933e fa95 af3e
00000050: 74e9 243d 6e88 8b3e 5501 37be 4461 c13d

fc3.weight f4 [24, 48]
-0.2699889 0.21925789 0.059266135 -0.17524065 -0.17047188 -0.26999137 -0.06167566 0.29233313
-0.03533022 -0.08648505 -0.3262624 0.62778527 -0.10925924 0.027933067 0.099909134 -0.20990342
-0.0027859982 -0.38782275 0.54791206 -0.08331449 0.10543147 0.26924387 -0.15138379 0.06647894
0.25836426 -0.17545366 -0.33034053 0.05873466 -0.1355331 0.04637228 -0.09092179 0.10887414
-0.049085528 -0.057706244 -0.2539353 -0.060287118 -0.09114811 0.45472026 -0.087703176 -0.06917506
-0.13322745 -0.11745595 0.0065553803 0.03346354 -0.47157988 0.30473366 -0.025578614 -0.2162174
-0.14819527 0.5608277 -0.50635207 0.3485876 -0.11770339 0.016587624 0.0102908425 0.32357517
0.17209929 -0.021765474 0.3818026 -0.17353019 -0.1304555 -0.07659343 -0.18736444 0.09646148
-0.08553631 -0.10756887 -0.23609741 0.09588009 -0.11002299 0.025607102 -0.1681633 -0.031203896
-0.16519755 0.03147817 -0.28494692 0.19612193 0.15609704 -0.06605889 0.32105345 -0.049375493
0.039175868 -0.067613594 -0.10635088 -0.13907747 0.08939918 -0.042339277 -0.1435821 -0.06205799
0.3891919 0.09923619 0.2868076 -0.11827521 -0.38387728 -0.08595418 -0.09508277 0.29775771
0.52525955 -0.46325046 0.040563546 -0.17520899 -0.15409821 0.46308905 -0.14513779 0.35956746
-0.14047754 -0.1007766 -0.303935 -0.03296297 0.2268237 -0.020125043 -0.18192157 -0.1501194
-0.10142204 0.18214478 0.17251743 -0.17120604 0.36536965 -0.27564546 -0.1297728 -0.2867019
0.038269073 -0.04298393 -0.05054767 0.39553684 -0.24659367 -0.08764964 -0.09398765 0.05103415
0.23409697 -0.19677232 0.2897614 0.042206362 -0.074607626 -0.22129336 0.06552725 -0.1282031
-0.17522246 -0.07740366 -0.006486236 -0.14894842 0.16949765 0.10889005 -0.4432494 0.26531512
-0.0758619 0.10639484 0.24321723 -0.19316266 0.39909384 0.06574718 -0.31379133 0.12924731
-0.015253621 -0.052292638 -0.18905348 -0.32060334 0.1332811 -0.021173779 0.15603863 0.14251968
-0.22377658 0.05793319 0.20204398 -0.020032495 0.17690206 -0.35276118 0.043138422 -0.019212535
-0.02797416 -0.16049202 0.050194867 0.22100388 0.61745197 -0.20724602 0.21047173 0.061201196
-0.2327236 -0.14015885 -0.34175667 0.0912391 -0.1009388 -0.08876724 0.46096674 0.6265287
-0.08504137 0.062250037 0.25408888 -0.11310858 -0.43322054 0.17183799 0.326274 0.27264076
0.24163477 -0.0773172 -0.2842344 0.42325822 -0.17808087 -0.113421634 0.022621155 0.32344708
0.12625182 -0.025642721 -0.18139796 0.09999073 -0.22421427 0.09915078 -0.027112413 0.09588228
0.56896967 -0.0019985435 0.3399867 0.015548867 -0.06836484 -0.15927322 0.16077594 -0.18440208
0.37090576 -0.2775306 -0.22724661 -0.015116732 0.26572806 0.095786944 0.4219036 -0.003075328
-0.14322372 -0.15055595 -0.22178234 0.16014536 -0.1605392 -0.26413703 -0.058223043 -0.03151119
0.34573814 0.114101596 0.18132226 -0.033538483 -0.22887722 0.21618044 -0.39517868 0.030141102
0.13201638 0.16204447 -0.41560012 -0.064584725 -0.2247286 -0.47019163 -0.26658577 0.25741643
-0.26188812 0.08627088 0.2299014 -0.0685108 0.74569196 0.10546934 -0.31224585 -0.04729889
00000000: fc3b 8abe 2485 603e 0cc1 723d 4972 33be
00000010: 2e90 2ebe 4f3c 8abe 9e9f 7cbd b0ac 953e
00000020: 6cb6 10bd 131f b1bd de0b a7be 89b6 203f
00000030: 4fc3 dfbd e3d3 e43c 299d cc3d ecf0 56be
00000040: 4b95 36bb b490 c6be f743 0c3f caa0 aabd
00000050: 74ec d73d 55da 893e 5a04 1bbe 1c26 883d
00000060: 5248 843e 20aa 33be 6522 a9be c193 703d
00000070: 30c9 0abe dcf0 3d3d 3435 babd 68f9 de3d
00000080: e80d 49bd 625d 6cbd cf03 82be a0ef 76bd
00000090: dcab babd 18d1 e83e b99d b3bd a7ab 8dbd
000000a0: c76c 08be bf8c f0bd 84ce d63b 1111 093d
000000b0: eb72 f1be 0d06 9c3e 3e8a d1bc 1868 5dbe
000000c0: 80c0 17be 6792 0f3f 4aa0 01bf 137a b23e
000000d0: 7a0e f1bd c5e2 873c ec9a 283c a5ab a53e
000000e0: cc3a 303e 824d b2bc a17b c33e e6b1 31be
000000f0: 2096 05be 04dd 9cbd 77dc 3fbe 998d c53d
00000100: a92d afbd 114d dcbd 85c3 71be c85c c43d
00000110: bc53 e1bd fcc5 d13c 0033 2cbe 509f ffbc
00000120: 8c29 29be 41ef 003d 90e4 91be 30d4 483e
00000130: e7d7 1f3e e249 87bd 1e61 a43e f53d 4abd
00000140: e076 203d ff78 8abd 7dce d9bd 536a 0ebe
00000150: eb16 b73d f36b 2dbd 3007 13be 8530 7ebd
00000160: 2944 c73e 583c cb3d 72d8 923e 463a f2bd
00000170: 908b c4be bf08 b0bd c1ba c2bd b373 983e
00000180: 6977 063f 2a2f edbe f625 263d fc69 33be
00000190: eccb 1dbe 021a ed3e 009f 14be 3a19 b83e
000001a0: 58d9 0fbe f663 cebd 5e9d 9bbe 2e04 07bd
000001b0: 7944 683e 46dd a4bc a649 3abe e6b8 19be
000001c0: 5cb6 cfbd 2984 3a3e 69a8 303e a350 2fbe
000001d0: bb11 bb3e 6721 8dbe 29e3 04be 97ca 92be
000001e0: 08c0 1c3d eb0f 30bd 130b 4fbd ce83 ca3e
000001f0: 0d83 7cbe a881 b3bd 997c c0bd 2f09 513d
00000200: 1eb7 6f3e af7e 49be 9b5b 943e 94e0 2c3d
00000210: e2cb 98bd ba9a 62be 2733 863d ac47 03be
00000220: 846d 33be cf85 9ebd 7e8a d4bb ef85 18be
00000230: cb90 2d3e bf01 df3d 96f1 e2be 62d7 873e
00000240: 7c5d 9bbd 8ae5 d93d f00d 793e 6fcc 45be
00000250: 0756 cc3e 75a6 863d 42a9 a0be 6859 043e
00000260: 53ea 79bc ce30 56bd 3c97 41be 1f26 a4be
00000270: d77a 083e a274 adbc 97c8 1f3e aef0 113e
00000280: b025 65be 5a4b 6d3d 9ee4 4e3e 301b a4bc
00000290: d025 353e 1d9d b4be eab1 303d 9b63 9dbc
000002a0: 112a e5bc 0558 24be 2299 4d3d d74e 623e
000002b0: 5511 1e3f 4d38 54be e785 573e 1bae 7a3d
000002c0: 184f 6ebe cd85 0fbe bbfa aebe 91db ba3d
000002d0: 00b9 cebd 99cb b5bd d503 ec3e 2f64 203f
000002e0: 2b2a aebd e5f9 7e3d f017 823e 79a5 e7bd
000002f0: 15cf ddbe 4cf6 2f3e 630d a73e 9297 8b3e
00000300: 1b6f 773e 7b58 9ebd 2c87 91be 4db5 d83e
00000310: d55a 36be 9a49 e8bd 0050 b93c db9a a53e
00000320: 2848 013e af10 d2bc 63c0 39be f1c7 cc3d
00000330: 6d98 65be 900f cb3d da1a debc ee5d c43d
00000340: ffa7 113f fff9 02bb bd12 ae3e adc0 7e3c
00000350: dd02 8cbd 8518 23be 73a2 243e e6d3 3cbe
00000360: 5ce7 bd3e 7e18 8ebe 56b3 68be 2bac 77bc
00000370: 820d 883e f22b c43d c003 d83e 718b 49bb
00000380: 3da9 12be 572b 1abe e91a 63be 25fd 233e
00000390: 6364 24be f83c 87be 497b 6ebd e111 01bd
000003a0: 9704 b13e 19ae e93d 8bac 393e a65f 09bd
000003b0: ca5e 6abe 685e 5d3e dc54 cabe 79ea f63c
000003c0: 4d2f 073e fcee 253e 8ac9 d4be ff44 84bd
000003d0: 411f 66be f5bc f0be ee7d 88be 16cc 833e
000003e0: 3316 86be caae b03d 466b 6b3e 644f 8cbd
000003f0: abe5 3e3f 4f00 d83d b0de 9fbe 7bbc 41bd
